…
[[0, 2], [0, 5], [1, 3], [1, 6], [2, 3], [4, 11], [5, 6], [5, 10], [6, 12], [7, 10], [8, 11], [9, 10], [11, 12]]
Got Split!
mol idx: [6 6 6 6 6 6 6 8 8 8 6 6 8 1 1 1 1 1 1 1 1]
Got 2000 samples!
{(6, 6): [[0, 2], [0, 5], [1, 3], [1, 6], [2, 3], [4, 11], [5, 6], [5, 10]], (8, 6): [[6, 12], [7, 10], [8, 11], [9, 10], [11, 12]]}
[[0, 2], [0, 5], [1, 3], [1, 6], [2, 3], [4, 11], [5, 6], [5, 10], [6, 12], [7, 10], [8, 11], [9, 10], [11, 12]]
EGNO(
  (layers): ModuleList(
    (0): EGNN_Layer(
      (edge_message_net): InvariantScalarNet(
        (activation): SiLU()
        (scalar_net): BaseMLP(
          (mlp): Sequential(
            (0): Linear(in_features=134, out_features=64, bias=True)
            (1): SiLU()
            (2): Linear(in_features=64, out_features=64, bias=True)
            (3): SiLU()
          )
        )
      )
      (coord_net): BaseMLP(
        (mlp): Sequential(
          (0): Linear(in_features=64, out_features=64, bias=True)
          (1): SiLU()
          (2): Linear(in_features=64, out_features=1, bias=True)
        )
      )
      (node_v_net): BaseMLP(
        (mlp): Sequential(
          (0): Linear(in_features=64, out_features=64, bias=True)
          (1): SiLU()
          (2): Linear(in_features=64, out_features=1, bias=True)
        )
      )
      (node_net): BaseMLP(
        (mlp): Sequential(
          (0): Linear(in_features=128, out_features=64, bias=True)
          (1): SiLU()
          (2): Linear(in_features=64, out_features=64, bias=True)
        )
      )
    )
    (1): EGNN_Layer(
      (edge_message_net): InvariantScalarNet(
        (activation): SiLU()
        (scalar_net): BaseMLP(
          (mlp): Sequential(
            (0): Linear(in_features=134, out_features=64, bias=True)
            (1): SiLU()
            (2): Linear(in_features=64, out_features=64, bias=True)
            (3): SiLU()
          )
        )
      )
      (coord_net): BaseMLP(
        (mlp): Sequential(
          (0): Linear(in_features=64, out_features=64, bias=True)
          (1): SiLU()
          (2): Linear(in_features=64, out_features=1, bias=True)
        )
      )
      (node_v_net): BaseMLP(
        (mlp): Sequential(
          (0): Linear(in_features=64, out_features=64, bias=True)
          (1): SiLU()
          (2): Linear(in_features=64, out_features=1, bias=True)
        )
      )
      (node_net): BaseMLP(
        (mlp): Sequential(
          (0): Linear(in_features=128, out_features=64, bias=True)
          (1): SiLU()
          (2): Linear(in_features=64, out_features=64, bias=True)
        )
      )
    )
    (2): EGNN_Layer(
      (edge_message_net): InvariantScalarNet(
        (activation): SiLU()
        (scalar_net): BaseMLP(
          (mlp): Sequential(
            (0): Linear(in_features=134, out_features=64, bias=True)
            (1): SiLU()
            (2): Linear(in_features=64, out_features=64, bias=True)
            (3): SiLU()
          )
        )
      )
      (coord_net): BaseMLP(
        (mlp): Sequential(
          (0): Linear(in_features=64, out_features=64, bias=True)
          (1): SiLU()
          (2): Linear(in_features=64, out_features=1, bias=True)
        )
      )
      (node_v_net): BaseMLP(
        (mlp): Sequential(
          (0): Linear(in_features=64, out_features=64, bias=True)
          (1): SiLU()
          (2): Linear(in_features=64, out_features=1, bias=True)
        )
      )
      (node_net): BaseMLP(
        (mlp): Sequential(
          (0): Linear(in_features=128, out_features=64, bias=True)
          (1): SiLU()
          (2): Linear(in_features=64, out_features=64, bias=True)
        )
      )
    )
    (3): EGNN_Layer(
      (edge_message_net): InvariantScalarNet(
        (activation): SiLU()
        (scalar_net): BaseMLP(
          (mlp): Sequential(
            (0): Linear(in_features=134, out_features=64, bias=True)
            (1): SiLU()
            (2): Linear(in_features=64, out_features=64, bias=True)
            (3): SiLU()
          )
        )
      )
      (coord_net): BaseMLP(
        (mlp): Sequential(
          (0): Linear(in_features=64, out_features=64, bias=True)
          (1): SiLU()
          (2): Linear(in_features=64, out_features=1, bias=True)
        )
      )
      (node_v_net): BaseMLP(
        (mlp): Sequential(
          (0): Linear(in_features=64, out_features=64, bias=True)
          (1): SiLU()
          (2): Linear(in_features=64, out_features=1, bias=True)
        )
      )
      (node_net): BaseMLP(
        (mlp): Sequential(
          (0): Linear(in_features=128, out_features=64, bias=True)
          (1): SiLU()
          (2): Linear(in_features=64, out_features=64, bias=True)
        )
      )
    )
    (4): EGNN_Layer(
      (edge_message_net): InvariantScalarNet(
        (activation): SiLU()
        (scalar_net): BaseMLP(
          (mlp): Sequential(
            (0): Linear(in_features=134, out_features=64, bias=True)
            (1): SiLU()
            (2): Linear(in_features=64, out_features=64, bias=True)
            (3): SiLU()
          )
        )
      )
      (coord_net): BaseMLP(
        (mlp): Sequential(
          (0): Linear(in_features=64, out_features=64, bias=True)
          (1): SiLU()
          (2): Linear(in_features=64, out_features=1, bias=True)
        )
      )
      (node_v_net): BaseMLP(
        (mlp): Sequential(
          (0): Linear(in_features=64, out_features=64, bias=True)
          (1): SiLU()
          (2): Linear(in_features=64, out_features=1, bias=True)
        )
      )
      (node_net): BaseMLP(
        (mlp): Sequential(
          (0): Linear(in_features=128, out_features=64, bias=True)
          (1): SiLU()
          (2): Linear(in_features=64, out_features=64, bias=True)
        )
      )
    )
  )
  (embedding): Linear(in_features=34, out_features=64, bias=True)
)
Model saved to logs/md17_exp/saved_model.pth
train epoch 0 avg loss: 0.17403
==> val epoch 0 avg loss: 0.14231
==> test epoch 0 avg loss: 0.14117
*** Best Val Loss: 0.14231 	 Best Test Loss: 0.14117 	 Best epoch 0
train epoch 1 avg loss: 0.14655
train epoch 2 avg loss: 0.13179
train epoch 3 avg loss: 0.12558
train epoch 4 avg loss: 0.12469
train epoch 5 avg loss: 0.12529
…
